HW3/preTrained/CartPole_0.001.pth (torch, 207359 bytes, 9 tensors)

fc.weight f4 [256, 4]
000000 07 15 09 3d d6 71 a2 be d1 f2 92 3e cd ae 41 be
       0.03346732 -0.31727475 0.2870088 -0.18914337
000010 fd dd 74 be 38 d4 8d 3e b2 bb b3 3e b3 12 cb be
       -0.23912807 0.27700973 0.35104138 -0.39662704
000020 73 e5 92 be f2 de e2 3e ad bf cb be 4d 14 49 be
       -0.2869068 0.4431072 -0.39794675 -0.1963665
000030 5c 6c e1 3e 2d 90 72 be 59 3b 57 3e ed 31 2e 3d
       0.44027984 -0.23687811 0.21018733 0.04252808
000040 75 f6 4c bd 69 ab 31 bd 60 88 13 3e 4d e1 f6 be
       -0.050039727 -0.04337636 0.14407492 -0.48218766
000050 62 16 85 3e 7c c8 1e be 43 e2 fa 3e 05 64 87 be
       0.2599364 -0.15506166 0.4900075 -0.26443496
000060 46 a0 40 bc 20 1c 96 be 6e fd 3c 3e 2c ed 84 3e
       -0.011756962 -0.29318333 0.18456051 0.25962198
000070 25 6b d2 bd ff 83 78 3e ab de b8 bd 84 78 d1 be
       -0.102743424 0.24269103 -0.090268455 -0.4091226
000080 3f 9d d3 3e c9 07 06 be b1 3b 0e be 4a 19 29 be
       0.41330907 -0.13088907 -0.13889958 -0.16513553
000090 14 ed 9e be 45 6f 42 bd 61 5a 9b be 49 a8 09 3e
       -0.3104025 -0.047469396 -0.3034239 0.13443102
0000a0 63 30 aa 3c 69 ab 3f 3e e2 3c be be 38 11 5f 3e
       0.020775026 0.18717732 -0.37155825 0.21783912
0000b0 2e 9d 88 3e 42 8f fa be 66 75 6f 3e 17 b4 2a be
       0.2668242 -0.48937422 0.23384628 -0.16670261
0000c0 c9 59 c0 be 08 6d db be 8b 4d fb be 3b 35 84 bc
       -0.375685 -0.42856622 -0.49082598 -0.016138664
0000d0 f9 59 ac 3d 89 f8 7a 3e 98 d9 c8 3e d9 d4 a1 3e
       0.084155984 0.24508871 0.3922851 0.31607702
0000e0 19 d8 03 bf 9e d5 dd 3e 0d e2 4a bd f0 70 8e 3e
       -0.51501614 0.4332704 -0.049531985 0.2782054
0000f0 21 ce dd 3e 80 26 4e bd 5d 9d 9b 3d 63 c6 bb 3e
       0.43321326 -0.050329685 0.07598374 0.36674795
000100 ec 35 94 3e bc f7 a9 3e 41 2f 88 be 10 75 71 3e
       0.2894739 0.3319682 -0.26598552 0.23579812
000110 15 c7 26 3d 48 e9 5e be ff 44 c0 be 47 af eb 3e
       0.040717203 -0.21768677 -0.3755264 0.46032164
000120 6b f9 83 be 00 95 98 3e 54 94 4d 3e ba 6a c1 be
       -0.25776228 0.29801178 0.20076114 -0.37776738
000130 1a bf 57 bd 9e 59 00 bf cb aa 0e bd cc bb a9 3e
       -0.052672483 -0.50136745 -0.03483085 0.3315109
000140 10 21 35 bb 5c f4 f3 be 53 0c 69 3e e4 fc 3a 3d
       -0.0027638115 -0.4764737 0.22758608 0.04565133
000150 5d 20 aa 3d 70 cf 47 3d 0b 8a ce be 49 84 d1 be
       0.08306954 0.048781812 -0.40339693 -0.40921238
000160 13 ac f9 be 19 d6 d5 3e 02 01 f8 be 5f 4a b2 be
       -0.48764095 0.41764906 -0.4843827 -0.34822366
000170 ec f6 c3 bd bd b5 c0 3d c8 89 be be 27 ed 9d be
       -0.09568581 0.09409664 -0.37214494 -0.30844995
000180 76 49 66 bd 9e 5c 1f 3e 4d b0 e5 be e3 26 e8 3e
       -0.0562224 0.15562674 -0.4486107 0.45342168
000190 ba 10 ef 3e 98 b1 85 be 57 15 c9 3d fe 43 f4 be
       0.4669245 -0.26112056 0.098185234 -0.47708124
0001a0 87 46 5c be 4a e0 8b be 47 7a 90 3e 16 e3 2f 3e
       -0.21511279 -0.27319556 0.2821829 0.1717647
0001b0 00 0a ab be 72 9d c3 be c2 33 c5 3d f9 c3 7c 3e
       -0.33406067 -0.3820606 0.09629013 0.24684133
0001c0 e6 0c e1 be a3 33 7e bd 41 69 3e bc c2 72 c7 3e
       -0.43955153 -0.062060963 -0.011621774 0.3895474
0001d0 54 b1 fe 3e 23 8a cd be 90 41 ad ba 92 a4 fc be
       0.49744666 -0.40144452 -0.0013218392 -0.49344307
0001e0 35 b7 5a be 1e 90 02 3f 48 99 67 bc 5a e2 ac 3e
       -0.2135895 0.51001155 -0.014135666 0.33766443
0001f0 52 d8 89 be 17 d3 c9 3d 88 5d 9d 3e 5e ff e4 3e
       -0.26922852 0.09854715 0.3073542 0.4472608
000200 2f d6 b8 be 72 73 b3 3e b4 ea 03 3e 33 f5 81 bd
       -0.3610091 0.35049015 0.12882501 -0.06345596
000210 34 5e 89 be d4 fe 6e be f7 44 81 3e ee 99 92 3e
       -0.26829684 -0.23339397 0.25247929 0.28633064
000220 a1 d7 f8 3d a4 b1 b9 be 86 78 b6 3c 01 f3 8a bd
       0.12150503 -0.36268342 0.022274267 -0.067846306
000230 a0 df 0e 3e 2b 6e 4c be 3f b6 a8 3e 20 48 d3 be
       0.13952494 -0.199639 0.32951543 -0.41265965
000240 ae 2f b1 be 54 5c 69 be e8 37 e4 3e cf 1e 2b be
       -0.3460669 -0.22789127 0.44573903 -0.16710971
000250 f3 01 67 be 9f 65 d4 3e c1 98 06 3f 06 ba 10 be
       -0.22559337 0.4148378 0.52576834 -0.14133462
000260 14 6f ff 3e ee d3 53 be 63 37 85 3e eb 14 12 be
       0.49889433 -0.20686314 0.2601882 -0.14265792
000270 d6 42 25 3e 6b 36 33 3e ac d2 a9 3d 8c dd 62 bc
       0.16138777 0.17501228 0.082921356 -0.013846766
000280 d2 7f 27 be b4 fe a4 be 62 8d d8 be c8 2c ba bd
       -0.16357353 -0.32225573 -0.42295367 -0.090905726
000290 56 df 2f 3d 37 32 02 bf 77 ed fb bd 59 c4 03 bf
       0.0429376 -0.5085787 -0.12301152 -0.5147148
0002a0 e5 69 f0 be 43 e5 c6 3e 23 0e 33 be 3f ef 7d 3e
       -0.4695579 0.38846788 -0.17485861 0.24798296
0002b0 c2 16 af be 97 61 3a 3e 2b 30 66 3e 18 c3 04 be
       -0.3419705 0.1820129 0.22479312 -0.12965047
0002c0 81 10 98 3d 38 a5 c3 bd 5b 07 f8 3e ab 34 a0 3e
       0.07425023 -0.09552997 0.48443112 0.31290182
0002d0 40 cb 40 bd f2 e5 ee bc 06 ea 86 3e d9 71 f8 3e
       -0.047068834 -0.02916238 0.2635042 0.4852436
0002e0 8b b4 e0 be 7d f7 93 3e aa a9 e1 be f5 47 8c 3e
       -0.43887743 0.28899756 -0.44074756 0.2739865
0002f0 32 b3 e4 be b0 94 84 3e ba 4b ab 3e bd c2 e8 3e
       -0.44667965 0.2589469 0.33456212 0.45461074
000300 c0 fe 61 3e 3c ca f8 3e a0 20 a3 3e e4 e8 97 be
       0.22069836 0.48591793 0.31860828 -0.2966987
000310 4c 08 fd 3e 0e fc 8b be 29 ee 88 be 1d 21 d9 3e
       0.49420393 -0.2734074 -0.26744202 0.42408076
000320 56 fe 28 be a4 7d 7f bd e9 eb 3b 3e b9 be 94 3e
       -0.16503271 -0.06237568 0.18351711 0.2905176
000330 df 45 59 3e 34 1c 81 3e f7 62 ae 3d 92 53 ee 3d
       0.2121806 0.2521683 0.0851497 0.116370335
000340 26 10 ba be a8 75 bb 3c 3b d9 8a be d1 d7 c7 3e
       -0.36340445 0.022883251 -0.2711886 0.39031842
000350 9c ea 73 3e 39 da b8 3d 21 65 b0 be 2b 7e 65 be
       0.23819965 0.09025998 -0.34452155 -0.2241141
000360 eb 70 72 bd 7e 68 b6 be da f1 25 3e 15 e3 bc bd
       -0.05918972 -0.35626596 0.1620554 -0.09223
000370 b4 bb 21 3e f2 9a 9d 3e 6f 60 88 3d f2 58 6d 3e
       0.1579426 0.30782276 0.06659018 0.23178461
000380 9a 11 df 3e eb c7 5a 3e ca c0 df 3e 96 e1 d2 be
       0.43568116 0.21365325 0.43701774 -0.41187733
000390 7b f2 ca bd f5 d2 36 be f3 07 e3 3e 2d 28 da 3e
       -0.09909531 -0.17853911 0.44342002 0.42608777
0003a0 c8 f1 c9 3c 2c aa 5b 3e a5 64 b4 3e 94 fb 35 be
       0.024651423 0.21451634 0.35233036 -0.1777175
0003b0 24 07 1f 3e 32 67 b1 3e ec 6b b0 be 41 62 8d be
       0.15530068 0.34649044 -0.34457338 -0.27614024
0003c0 9d cb bb be 30 49 88 3e 38 66 84 bd 0b 09 3b be
       -0.36678782 0.26618338 -0.06464809 -0.18265168
0003d0 cf 38 9d 3e aa d7 d4 be ec e2 8a be 58 3e f3 bd
       0.30707404 -0.4157079 -0.27126253 -0.118771255
0003e0 b0 f7 c8 3e 73 d5 fe be c9 33 e0 3e 2f 72 ce be
       0.3925147 -0.49772224 0.4378951 -0.4032149
0003f0 7c ab e9 3c ca 44 a9 bc b1 0f ec bd 86 9c 00 3f
       0.028524153 -0.020662684 -0.115264304 0.50238836

fc.bias f4 [256]
000000 5b 65 15 3f de 6b ef be 14 ff 89 be c5 45 e5 3e
       0.5835778 -0.46761984 -0.26952422 0.44779792
000010 76 cf 89 be 6a e8 21 be 75 92 de be 68 d3 c9 3d
       -0.26916093 -0.15811315 -0.43471113 0.09854776
000020 16 b2 db be 96 4d 98 3e 05 c3 c6 3e c3 b8 15 3e
       -0.42909306 0.29746693 0.38820663 0.14621262
000030 a3 9b b3 3e ab 6b 90 3e eb 07 bd 3e 7e ec dc 3e
       0.3507968 0.28207144 0.36920103 0.4314918
000040 d3 33 c3 3e 4f fc 81 be d2 d4 a6 3e 99 a6 e2 3e
       0.38125476 -0.2538781 0.32584244 0.4426773
000050 27 7f 1b bf af 95 95 be 7f fa d6 3e 5f 51 cc be
       -0.60740894 -0.29215762 0.41987988 -0.3990583
000060 8e 5b 56 be fc f7 f4 3e bc 33 df 3e 24 ea fe 3d
       -0.20933363 0.47845447 0.43594158 0.124470025
000070 b9 fd 88 3e a3 1a bf be 3f 36 f3 3e ea c7 e2 3e
       0.26756075 -0.3732501 0.47502324 0.44293147
000080 ec dc 1e bf 1d e7 eb be f3 9c e7 3e 8a 1b 0e bf
       -0.6205585 -0.46074763 0.4523693 -0.5551077
000090 d4 02 3e be 19 f4 03 bf 15 b0 a1 3e 53 3f fd 3e
       -0.18555766 -0.5154434 0.31579652 0.49462375
0000a0 ba 4c 0e bf 6b a2 4a 3e 9b 9d 03 3f bd 06 df be
       -0.55585825 0.1978852 0.5141236 -0.43559828
0000b0 69 76 d6 be 6a 4d fc be f1 4b 79 3e 39 07 01 3f
       -0.41887215 -0.49277812 0.24345376 0.50401646
0000c0 bc 08 44 be 03 06 9d be 7a 44 0c bf 70 e1 1a 3e
       -0.19143957 -0.3066865 -0.54791987 0.1512506
0000d0 a2 5f 29 be db 30 06 bf ae 39 0c 3f e3 66 bf 3e
       -0.16540387 -0.524183 0.5477551 0.37383184
0000e0 d4 cf a7 3e f2 5b e9 3e 2b 36 11 3f 59 49 09 3f
       0.32775748 0.4557796 0.5672328 0.53627545
0000f0 52 00 59 be f0 98 99 3e 55 a0 5e 3e e8 6d 94 be
       -0.21191528 0.29999495 0.2174085 -0.28990102
000100 2c 3f b7 be 64 ee a2 3e 6e 4a c0 3e c8 a3 ed be
       -0.35790384 0.31822503 0.37556785 -0.46414018
000110 f8 51 7b bd 25 51 02 bf 66 3b ac 3e 91 b4 df be
       -0.06135747 -0.50905067 0.33639067 -0.4369245
000120 77 b6 21 3e bc 15 d2 3e e2 25 e0 3e 7a 07 f5 be
       0.15792261 0.41032207 0.43778902 -0.47857267
000130 4c 61 03 3f 7e dc 0c bf d9 d3 d4 3e 11 d4 d4 3e
       0.5132034 -0.55023944 0.41567877 0.41568044
000140 48 9d 18 3f 04 e1 e1 3e 65 36 cf 3e 7e 28 89 3e
       0.5961499 0.44116986 0.40471187 0.26788706
000150 7a 11 1a 3e 0a 5e af 3e b0 e6 04 3f 5f b2 d6 be
       0.1504573 0.34251434 0.519145 -0.4193296
000160 45 6a cf be 0d 34 e5 be 4d ef c4 be 95 6e 20 bf
       -0.40510765 -0.44766274 -0.38463822 -0.62668735
000170 76 32 cb be 0d 40 1d bc 8d ce c7 3e 9d 1b 03 3f
       -0.39686936 -0.00959779 0.39024773 0.5121401
000180 9f af fb 3e 58 2f e8 3e 92 f6 cd 3e e2 95 01 3f
       0.49157426 0.4534862 0.4022718 0.5061933
000190 1a c6 05 bf 3f b7 15 3f dd f4 53 be 68 bb 87 3e
       -0.52255404 0.58482736 -0.20698877 0.26510167
0001a0 d7 25 c1 3e e0 9c 84 3e 40 a3 41 3e 6d 38 f6 be
       0.37724182 0.25900936 0.18909931 -0.48089924
0001b0 1a cc ea be 06 dc e8 be 9b 39 93 3e 94 cc eb be
       -0.45858842 -0.45480365 0.28754887 -0.46054518
0001c0 f7 0c e6 3e 85 07 bb 3d 71 0e c8 3e 2c 8d 15 be
       0.44931766 0.091322936 0.39073518 -0.14604634
0001d0 a1 b0 1c 3f 3d 5d 4d 3e 34 a7 19 3f 39 b3 48 3e
       0.61207014 0.20055099 0.60020757 0.19599618
0001e0 f0 f8 06 3e 20 2c 70 3e 26 39 1c 3e 5b de 97 be
       0.131809 0.23454332 0.15256175 -0.2966183
0001f0 4a 95 f0 bd 63 ee d9 3e 2a 6e ef 3e 4a 42 8a 3e
       -0.11747225 0.42564687 0.46763736 0.270037
000200 1f 33 42 3e cb ae 1d 3f e8 b1 e6 be 64 e6 ae be
       0.18964814 0.6159484 -0.45057607 -0.3416015
000210 d5 71 0f bf bb 6e 17 3f 2c 8d 48 be ad 29 e2 3e
       -0.5603307 0.59153336 -0.19585103 0.4417242
000220 3a 30 09 3f d4 60 a1 be 42 82 38 be 80 6e ad 3e
       0.5358921 -0.31519186 -0.1801844 0.33873367
000230 c1 a8 bd 3e 5d fa 72 3e 25 14 b7 3e d1 e2 7d be
       0.37042812 0.23728319 0.35757557 -0.24793555
000240 aa 8a 27 3e 11 f8 75 3e 6c a8 cf be 84 af cc 3e
       0.1636149 0.24020411 -0.40558183 0.39977658
000250 31 49 db bd 4a 3b a5 be 69 90 e7 be b2 b5 30 3e
       -0.107073195 -0.32271796 -0.45227364 0.17256811
000260 27 bd aa 3e 27 45 b0 be ba ab 98 3e a1 0c 1f bf
       0.33347437 -0.3442776 0.29818517 -0.62128645
000270 77 aa 9a 3e 12 06 03 3f 7f d3 8b 3e 9c 94 07 3f
       0.3020818 0.5118114 0.27309796 0.52961135
000280 18 20 f9 bb d3 fa 09 bf 3b 10 0e bf 37 2f 0b bf
       -0.007602703 -0.5389835 -0.55493516 -0.5436892
000290 ca 76 d1 be 3d 1f 1e 3e f3 45 af be 57 f0 1d be
       -0.4091094 0.15441604 -0.34233055 -0.15423714
0002a0 da 8b 7c 3e 7f 49 ba be 10 39 8e be 9e ff db be
       0.24662724 -0.36384198 -0.2777791 -0.42968458
0002b0 72 b4 1d bf 81 be 16 bf 12 3c b8 3e a6 6f dd be
       -0.6160346 -0.58884436 0.3598333 -0.43249243
0002c0 f1 9a 5f 3e cf 9f db 3d 6f 2a fc bd 0d 39 2e be
       0.21836449 0.107238404 -0.12312781 -0.1701395
0002d0 a4 37 b1 3e 43 46 02 3f d1 9d ee 3e 96 88 58 be
       0.34612763 0.5088846 0.4660478 -0.21145853
0002e0 e8 4f 11 3f e4 2e 1f bf b4 52 14 be 7f 3d e5 3e
       0.5676255 -0.62180924 -0.14484674 0.4477348
0002f0 df b2 ad bd 42 2d 61 3e 54 37 15 bf f2 30 fe be
       -0.084813826 0.2198992 -0.5828755 -0.49646717
000300 63 49 8f 3e 80 7f b2 bd 7f 56 fb be 49 5e 0a bf
       0.27985677 -0.08715725 -0.4908943 -0.5405012
000310 ab dd 02 3f f9 71 fa 3e 07 9e b2 be f1 7c 10 be
       0.5111949 0.4891508 -0.3488619 -0.14110161
000320 5b 23 ad be a3 14 bf be 73 09 f7 bd af ce 9a 3e
       -0.33816037 -0.37320432 -0.12062349 0.30235812
000330 be 5e ff be 31 7e ce 3e af 33 14 bf b9 8f ba 3e
       -0.4987697 0.4033065 -0.5789136 0.36437777
000340 56 f1 8a 3e e6 55 e5 3e 37 ca b5 be d0 1b bf 3e
       0.2713725 0.44792098 -0.3550584 0.37325907
000350 48 d1 b7 3e 04 f0 05 bf 9d cc 6a 3e dc 37 9f be
       0.35901856 -0.5231936 0.22929616 -0.31097305
000360 e0 b4 a5 3e ab 42 ba be 0f 37 39 3e 30 d2 1e bf
       0.3236456 -0.3637899 0.1808741 -0.6203947
000370 1e ce 6f 3e 28 ef 01 be b1 2b a2 be 86 4d d9 be
       0.23418471 -0.12688887 -0.3167396 -0.42441958
000380 d6 bc aa be 9a 4e 13 3f 24 ba 06 be 30 dc bf 3e
       -0.33347195 0.5754181 -0.13156945 0.37472677
000390 59 76 aa 3e e6 8f ea 3e 00 07 12 bf ad d8 45 3e
       0.33293417 0.4581291 -0.5704193 0.19320937
0003a0 13 4c 04 3f 03 a4 a5 be ee 22 1e 3e 8f a0 97 3e
       0.5167858 -0.32351694 0.15443012 0.29614684
0003b0 c3 ea 18 3f a1 ef 8d be 02 e7 2d be 64 6b c2 3e
       0.5973322 -0.27721885 -0.16982654 0.37972558
0003c0 33 cd 0a bf 40 6e da 3e 22 27 d1 be a2 39 13 3e
       -0.5421936 0.4266224 -0.40850168 0.14377454
0003d0 32 80 ec be 20 3f ff 3e 7b e2 0e bf ba c6 32 3e
       -0.46191555 0.49852848 -0.5581433 0.1745862
0003e0 e7 46 0a 3f cb 08 02 3f a4 a6 c7 3e 1a 95 82 3e
       0.5401444 0.50794667 0.38994324 0.2550438
0003f0 ea f4 a2 be 0c b4 60 3e 0d 15 af be fd 06 ef 3e
       -0.3182748 0.21943682 -0.34195748 0.4668502

action_fc1.weight f4 [128, 256]
000000 e5 b6 46 bd cf f0 0e 3d ca 7d d7 bc 5f 75 f4 bc
       -0.048514266 0.03489762 -0.026305098 -0.029841123
000010 e3 7f e1 3c f1 7a 8a 3d c8 47 00 3d ae 40 0b 3d
       0.027526801 0.067617305 0.031318456 0.03399723
000020 78 79 b9 bc 66 e5 f2 bc 9d 17 53 bc 83 01 be 3d
       -0.022640929 -0.029650401 -0.012884048 0.09277632
000030 14 dd 21 3d 50 be 1f bd 8f 01 0c 3c 57 36 e3 bc
       0.039517477 -0.038999856 0.0085452935 -0.027735872
000040 36 50 d8 3b d6 60 38 3d 84 12 dc bb 1e 22 c8 bc
       0.0066013588 0.045014225 -0.0067160744 -0.02443033
000050 15 7d 36 3d 46 40 74 3d c9 2c 2c bd 02 db 6d 3d
       0.04455288 0.05963161 -0.042034898 0.05807019
000060 02 3b e6 bc 01 ce 38 bc 95 0a 8e 3b bd 2b 96 3c
       -0.028104309 -0.011279584 0.0043347576 0.018331403
000070 6b b8 8c bd e4 4c 0a 3c c0 4a bc bc 35 6a 9e 3a
       -0.068711124 0.008441184 -0.022984862 0.0012086096
000080 e0 6a 15 bd 15 07 03 bd 78 45 b7 bc 24 f3 ae bc
       -0.036478877 -0.031989176 -0.022371992 -0.021356173
000090 c4 43 e3 bc 5c 7c 64 bd f1 3c 32 bb 2e dd 22 bd
       -0.027742274 -0.05578266 -0.0027196968 -0.039761715
0000a0 2f ff c1 3c fb 47 0e 3e c8 e0 94 bd b1 0c 2e bc
       0.023681251 0.13894646 -0.07269436 -0.010623143
0000b0 f6 b3 41 bd f2 ee be bd 00 e7 8e bd 85 e1 30 bd
       -0.047290765 -0.09322919 -0.069776535 -0.043183822
0000c0 09 ee 24 3d 13 82 37 3d 0f b4 ac 3c c3 2c 5d 3c
       0.04026607 0.044801783 0.021081952 0.013499442
0000d0 37 7a ce bc 89 b4 b4 3b 3b a5 2c bd bc 17 d2 bc
       -0.025204761 0.0055146855 -0.042149764 -0.025646083
0000e0 91 3b b1 3c 8d 71 52 bd 86 69 fa bc a3 7d 90 3c
       0.021634849 -0.05137782 -0.030567896 0.017638033
0000f0 e2 d2 07 bd 98 41 68 bc 6f 8f af 3d 25 8e 36 ba
       -0.033160098 -0.014175795 0.0857228 -0.000696393
000100 a1 27 bd bd ea b2 bc 3c 13 e2 87 bc 09 f1 2c bd
       -0.09236074 0.023034532 -0.016587293 -0.042222057
000110 6a c0 48 3d 0a b8 82 bc 22 7c 03 3d 18 c4 84 ba
       0.049011625 -0.015956897 0.032100804 -0.0010129241
000120 82 f8 74 3b dd b4 18 3c 62 e1 99 bb b0 74 07 3b
       0.0037379568 0.009320465 -0.004696057 0.0020668916
000130 8f 3d 40 3c 28 6a 05 39 6e 71 7e 3d 5c c2 78 bd
       0.011733427 0.00012723415 0.062119894 -0.06073223
000140 49 c4 f4 3c a8 7f cf 3c af cc e6 3c f6 a3 02 bd
       0.029878752 0.025329426 0.028173773 -0.031894647
000150 15 c2 c2 3b 57 38 94 3d e7 3b a4 3c d9 37 a3 3d
       0.0059435465 0.072373085 0.020048095 0.079696365
000160 72 a6 41 3c 97 0d 0f 3d 97 e9 b4 bc 12 0e ab 3d
       0.011819469 0.03492507 -0.02208404 0.08352293
000170 72 67 b3 bc d4 cf 94 3c dc 2f ff bc 00 15 08 bd
       -0.021899913 0.018165506 -0.03115075 -0.033223152
000180 93 44 bf 3d 5f cd 3f bd 04 1d 62 bc ef 88 a4 3c
       0.09339251 -0.046826717 -0.013800863 0.020084826
000190 25 33 7e 3a e9 67 a3 bd ed 2b 41 bd ff 76 36 3d
       0.0009696952 -0.07978804 -0.04716103 0.044547077
0001a0 5d df 2b 3d 6e c2 01 3d 54 28 b6 bd 4e 4c 28 bd
       0.041961063 0.031679563 -0.08894411 -0.041088395
0001b0 57 36 01 bc 9d 6f 16 3d b3 0a a5 3d e1 72 67 bd
       -0.007886491 0.036727536 0.08058681 -0.05650604
0001c0 35 15 90 bd b0 9f c2 3d f4 01 51 bd b1 72 81 bd
       -0.07035295 0.09503114 -0.051027253 -0.06320704
0001d0 c5 9a 22 bd 35 ee 4e bc fc 6b a7 bc 64 95 00 be
       -0.03969838 -0.012630035 -0.020437233 -0.12556988
0001e0 f3 7e bf bb c9 88 90 3c 1c 84 b5 bd be f9 90 3d
       -0.005843991 0.01764335 -0.088630885 0.070788845
0001f0 fd 3f ed bc c2 a6 09 3d 49 b0 a3 3d 0f 2e 8d bd
       -0.028961176 0.0336063 0.07992608 -0.068935506
000200 eb e3 f1 bb 33 23 9b 3c ac 39 b4 bb 5a 0b d8 3b
       -0.0073819063 0.018937683 -0.005500039 0.00659315
000210 f7 11 98 3c 57 35 1d 3d 60 8a ba 3c 76 d8 19 3d
       0.018563254 0.038380947 0.02277106 0.03755995
000220 8a 68 4f bd 93 2f eb bc 62 a3 d6 3d 50 fb 9d bc
       -0.050636806 -0.028709209 0.104803815 -0.019284874
000230 ab 72 af 3c 3b 14 ca 3c e4 f2 16 bc cc 0b 54 3b
       0.021416983 0.02466785 -0.009213183 0.0032355664
000240 93 00 0e 3d 83 c0 dd 3c 03 e0 9b bb f3 15 95 3d
       0.034668516 0.027069336 -0.004756929 0.07279577
000250 c3 8e ca 3d 33 64 96 bd e1 10 09 bd d0 4f 93 bc
       0.09890511 -0.0734333 -0.033463363 -0.017982394
000260 8c 3d 65 3d 15 3d 19 bd d7 4b 2c bd c8 e3 b3 3c
       0.0559669 -0.037411768 -0.042064514 0.0219592
000270 25 ad ad bc 39 97 2a bc e7 b4 b6 bd 0f d0 d7 3c
       -0.021200726 -0.010412031 -0.08921223 0.026344327
000280 88 16 16 bd 47 46 80 3d 82 b7 d4 3c 2f 7d c2 39
       -0.03664258 0.06263404 0.02596641 0.00037095833
000290 f5 96 35 3d ae a7 71 3c e5 20 47 3d ea e1 81 bd
       0.044333417 0.014749451 0.048615355 -0.06341918
0002a0 95 d5 dc bc 63 a2 8c 3d 5a 14 1a 3d 41 69 92 bc
       -0.026957313 0.0686691 0.037617065 -0.017872455
0002b0 f6 38 7d bd 54 02 46 3b 1d f2 30 bc 4f cb 35 bc
       -0.0618219 0.003021379 -0.010799912 -0.011095836
0002c0 aa e1 eb 3d f8 eb 5e 3d ed be 2a bd d2 c5 5a bd
       0.115176514 0.054424256 -0.041685987 -0.053411312
0002d0 a0 3c 00 bd 24 31 8c bd a8 92 b8 3c 0e 07 f1 bb
       -0.031307817 -0.0684531 0.022530869 -0.0073555773
0002e0 7d 22 d3 3c 67 c4 57 3b 6a 56 47 3d 15 0d 2e 3d
       0.025773281 0.0032923461 0.048666395 0.042492945
0002f0 e2 57 47 bd 60 3c 7d bd 0a 3c 56 bd 4a d4 41 bd
       -0.048667796 -0.061825156 -0.05230335 -0.047321595
000300 6b 36 cd bc 88 67 33 3d 8f de 8f 3d 3c 86 9a 3d
       -0.025050363 0.043799907 0.070248716 0.075451344
000310 af 12 4b 3c e5 54 21 3d 7c e6 a8 3d 18 19 be bc
       0.012394591 0.039387602 0.082470864 -0.023205325
000320 84 cf 4f 3c e4 66 12 3c f6 a8 e8 3c 68 21 83 bc
       0.012683753 0.008935664 0.02840088 -0.01600714
000330 13 46 6d bd b2 63 1e 3c c1 b8 28 3a 6a 1b f5 3d
       -0.057928156 0.009667324 0.0006436222 0.119681194
000340 7d 81 2c bd 33 91 e7 3c 22 5b 97 3d 40 d5 2b 3d
       -0.042115677 0.028267479 0.07390429 0.041951418
000350 f2 4c cd bc 73 8e 51 3c 3a 30 2f bd c3 5c 01 3d
       -0.025061104 0.01279031 -0.0427706 0.031582605
000360 81 c6 ad 3d 4a f6 10 3d fd 09 f8 3c cb 58 01 bd
       0.08485127 0.03539113 0.0302782 -0.03157882
000370 bb 75 10 bd f0 a3 1c bd a7 3d d4 3d 36 32 bb bd
       -0.035268527 -0.03824228 0.10363322 -0.09140436
000380 52 8c d8 bb 7e 8d 32 bc 82 19 b8 3d 12 53 9c bd
       -0.0066085244 -0.010897992 0.0898924 -0.07633032
000390 c4 ed b2 bd da 50 50 3d ec 99 8c bd a1 ce 8a 3d
       -0.087367564 0.050858356 -0.06865296 0.067776926
0003a0 fb e2 cd bd be 59 8d 3c 73 59 c4 bc 7f 50 41 3d
       -0.10053059 0.017254706 -0.023968434 0.047195908
0003b0 ee fb 7b 3d d7 f9 03 3c f0 d9 5b bd b2 07 95 3d
       0.061519556 0.008055172 -0.05367464 0.072768584
0003c0 33 4a 68 bd b6 3f 87 3d 54 41 9a bd db 3d 15 bd
       -0.056711387 0.06603949 -0.075319916 -0.036435943
0003d0 c7 37 9c bc fa 6f 44 3d 5f 58 4e 3d da be 84 3c
       -0.019069565 0.04795835 0.050377246 0.016204286
0003e0 85 68 39 bd a2 fe 9f 3c 98 a4 43 3d db 51 13 3c
       -0.045265693 0.019530598 0.04776439 0.008991684
0003f0 b9 9f 2a bc a5 ca 08 bc fc 3d bb bc be 58 c0 bb
       -0.010414057 -0.0083490955 -0.022856705 -0.005869954

action_fc1.bias f4 [128]
000000 91 94 5e 3d d9 84 8b 3d cd 8b a0 bb bd 27 3b 3c
       0.054340903 0.06812448 -0.004899478 0.011423049
000010 94 19 20 bd 32 af 24 bd 57 93 9c bc 0a 48 1e 3d
       -0.039086893 -0.04020614 -0.019113226 0.03864292
000020 08 f7 0d 3d d0 dd db 3c a1 a0 23 3d bf f5 64 bb
       0.034659415 0.026839167 0.03994811 -0.0034936515
000030 4f ab 2c bc 20 f9 1f 3d 41 f2 70 3d 2c fa 4c 3c
       -0.01053889 0.039055943 0.05882478 0.0125108175
000040 77 34 81 3b 67 78 57 bd be cd 8a 3c 3e 35 03 3d
       0.003943022 -0.05260506 0.016943809 0.032033198
000050 73 e3 09 bd dc b6 5f 3c c1 f9 58 bd eb bb 2c 3d
       -0.033664178 0.013654437 -0.05297256 0.0421714
000060 5a 6a bb 3c 55 51 34 bd c1 89 b1 bb 35 40 1f 3c
       0.02287786 -0.044022877 -0.005418033 0.009719898
000070 a5 e5 0f bd ae ea a7 3c 95 88 78 bd c1 29 b7 3b
       -0.035131115 0.020497646 -0.06067713 0.0055896943
000080 2f 2b 10 bc ff c8 67 bd 7b cb e0 3c ae 67 25 bd
       -0.008799358 -0.05658817 0.027440777 -0.04038208
000090 ef 56 b4 3a f2 7b 93 bc 9f 05 21 bd a9 40 40 3d
       0.0013758818 -0.018003438 -0.039312 0.046936665
0000a0 4f 0d 42 bc e9 9a 20 3d 57 4e 6f bc cf 95 23 3d
       -0.011843993 0.039210234 -0.01460608 0.03993779
0000b0 54 b8 59 3d 5b 78 ea 3c 45 ca 2d 3d f4 f4 98 bd
       0.053154305 0.028621843 0.042429227 -0.07468596
0000c0 09 4b 7f bd b1 57 7e bb 53 d1 ac 3c 85 f9 a2 bd
       -0.06232742 -0.0038809592 0.021095907 -0.07957748
0000d0 0c 60 12 bd 1c 7c 57 3c 8f d4 91 bd 3d c6 c5 3b
       -0.03573613 0.013152149 -0.071206205 0.0060355947
0000e0 f8 06 08 3d 0d 4e 53 3d a8 b9 05 3c cb 5f 42 bd
       0.03320977 0.051588107 0.00816194 -0.047454637
0000f0 bd d1 3f bb 35 5e 43 bd 74 e8 24 bd 07 90 62 bd
       -0.00292693 -0.047697265 -0.040260747 -0.055313136
000100 9d eb b5 3c 05 74 4e bc b0 f9 20 3a c5 bd b5 3d
       0.022207076 -0.012600903 0.0006140722 0.08874086
000110 78 3b c8 bb 01 d2 53 3d 1c 1f bb 3c b4 39 64 bd
       -0.006110605 0.051713947 0.022841983 -0.055719092
000120 56 e6 da bc 5a 37 29 bd 16 91 31 bc 29 04 8e bc
       -0.02672116 -0.041312553 -0.010837814 -0.017335968
000130 dc ac 98 bb 12 a6 ca 3c 96 be 4a 3d e7 d3 6b bc
       -0.0046592783 0.024737392 0.049498163 -0.014393783
000140 64 14 6c 3d 0a 37 96 bc 5d b7 f9 bc d6 67 13 3a
       0.057636634 -0.018336792 -0.030482942 0.0005623078
000150 60 92 48 3d 57 08 50 3d 4e 42 8a bd 0b b1 4f bc
       0.04896772 0.050789203 -0.06750928 -0.012676488
000160 32 f1 f5 3c e7 47 d0 ba 56 f4 48 3c 44 fb 83 bd
       0.030022237 -0.0015890569 0.0122652855 -0.064444095
000170 f8 c3 21 3c 67 b5 86 bd cf a4 cc 3b f0 41 27 bd
       0.009873383 -0.065775685 0.0062452327 -0.040834367
000180 44 a3 7d bd 1f 8b 3d bd bd 16 89 3a 1f 83 63 3d
       -0.06192328 -0.046275254 0.0010459047 0.05554497
000190 85 5c d5 bc 14 1e 05 bd db 22 10 bd de 65 ed 3c
       -0.026045093 -0.032499388 -0.03518949 0.028979238
0001a0 75 e4 9b 3c 99 25 3b bc 0c db cc bb 3f a5 32 bd
       0.019029835 -0.011422538 -0.0062516984 -0.043614622
0001b0 de 88 a1 bc ee e3 4e bc 88 92 18 3b 00 91 f6 3c
       -0.019718584 -0.012627585 0.0023280699 0.030098438
0001c0 58 e0 a8 bd e3 48 25 bd fd 3f ee 3b 70 b2 ce bc
       -0.08245915 -0.040352713 0.0072708116 -0.02523157
0001d0 d9 17 c9 3c 0f 29 25 bd fb 3d 6f 3d 38 99 04 bc
       0.024547504 -0.04032236 0.05840872 -0.008093171
0001e0 ac 74 59 bd 3a 1c 19 bd f9 2f 4f 3d 79 a6 74 bd
       -0.053089783 -0.037380435 0.05058286 -0.059729073
0001f0 2f ad 4a 3c e4 a5 f4 bc a9 ad 92 bd 52 89 d3 bc
       0.012370392 -0.029864259 -0.07162029 -0.025822315

action_fc2.weight f4 [2, 128]
000000 4d 6d 81 3d 84 2b a5 bc be d2 a0 3d 11 f3 e0 bc
       0.063196756 -0.020162351 0.07852696 -0.027459653
000010 7e dc 6a bd 1c a6 24 bd c8 49 b0 bb ea 75 82 3c
       -0.057339184 -0.040197477 -0.005379889 0.015925366
000020 d3 de e8 3d 80 72 1e 3b 27 5e 61 3c 56 1a 08 bd
       0.11370625 0.0024177134 0.013755358 -0.03322824
000030 ff d0 83 3d 6b d0 4a bd fc 3e 9b 3c 9b 05 bf 3d
       0.06436347 -0.04951517 0.018950932 0.09327241
000040 57 a6 aa 3a 76 80 8f 3c c4 0c 0e bd cb d1 30 3d
       0.0013019544 0.01751731 -0.034680143 0.043168824
000050 58 68 54 3d 30 43 a3 bd 0e 39 7e 3d 61 4e 48 3d
       0.051857322 -0.079717994 0.06206613 0.048902873
000060 c5 9c 8f 3d 9f 9d 8f 3c 6f 7f c6 3d 07 36 6a 3d
       0.07012323 0.017531214 0.09692275 0.05718043
000070 53 86 1b bd 7e b5 8e 3d 02 53 38 3d 12 2e 92 3c
       -0.0379699 0.06968211 0.045001037 0.017844234
000080 d4 e6 1d 3b 45 82 33 bc 3c 7a 99 bd 12 f7 cc 3d
       0.0024093883 -0.010956352 -0.074940175 0.100080624
000090 2e 92 be 3c 62 87 8e 3d 56 80 90 3c d2 16 a8 3d
       0.023263063 0.06959416 0.01763932 0.08207478
0000a0 9f 56 63 3d 21 6f 4b 3d eb 54 9b bd a6 85 8f bd
       0.05550253 0.049666528 -0.07584556 -0.07007913
0000b0 c4 31 8c 3d ce 13 3f 3a cf d5 5b 3d bd 8a 4a bd
       0.068454295 0.0007289023 0.0536707 -0.049448717
0000c0 c7 5e 30 bd bf 05 55 bd 12 5b 99 bd 10 15 61 bd
       -0.043059137 -0.052007433 -0.074880734 -0.054951727
0000d0 15 4b 51 3d 24 99 84 bc 45 c4 6b bd 51 ee 26 3d
       0.051096994 -0.016186304 -0.057560224 0.04075462
0000e0 57 e8 82 3c a0 ff b4 3a 18 84 11 bd 85 62 4d 3c
       0.015979929 0.0013809092 -0.035526365 0.012535696
0000f0 10 89 98 3d 62 40 85 3d fa a3 36 3d 38 0a 64 bd
       0.074480176 0.06506421 0.044589974 -0.055673808
000100 2d 4c 9b 3d 83 22 8e 3d 5c 77 03 be ea f8 79 bd
       0.07582889 0.06940176 -0.128385 -0.0610284
000110 cc 79 1a 3d f9 ec 43 bd d7 cf 75 bd 81 57 e4 3d
       0.03771381 -0.047833417 -0.060012665 0.111495025
000120 49 24 a4 bc 6c 4d 83 bd e4 30 fe bd 6c d5 91 3d
       -0.020036833 -0.064112514 -0.12411669 0.07120785
000130 bf c2 8e bc 3c 6d 4e bd bb aa 71 3d fa b8 0a 3d
       -0.017426847 -0.050397143 0.059000712 0.033867814
000140 99 ff cc 3d 92 7d 51 bd 76 56 84 bd 8b ee 94 bd
       0.10009689 -0.051145144 -0.064618036 -0.07272061
000150 a9 75 39 bd 1c 63 78 bd eb 0c 67 bd e1 a0 3e 3d
       -0.045278225 -0.060641393 -0.056408804 0.046540145
000160 58 49 9b 3c 30 ce 01 3e e7 4f 5c 3d f7 38 80 3d
       0.018955871 0.1267631 0.05378714 0.06260865
000170 d9 3f 96 bd 64 71 b0 bb 5a ef a8 3c db c2 ab 3b
       -0.07336397 -0.005384611 0.020621944 0.0052417344
000180 23 af 10 bd 7e 0f 0d bd bb 71 58 bd 10 6a bf bd
       -0.035323273 -0.034438603 -0.052842837 -0.09346402
000190 a6 9a 4e 3d e1 b0 86 3c 28 76 b3 3c 5e 32 1a bd
       0.050440453 0.016441764 0.021906927 -0.03764569
0001a0 f5 16 c2 bc 61 b8 dc 3c db c0 e0 3c 47 36 3b 3d
       -0.023692587 0.026943387 0.02743571 0.04570606
0001b0 6b c1 a0 bd 12 43 13 3d e3 0b 54 bd 3f 7c 34 3c
       -0.078493915 0.035952635 -0.05176915 0.011015951
0001c0 82 14 13 bd 5f e2 3c bd 53 62 10 be 1d 19 be bc
       -0.03590823 -0.04611432 -0.14100008 -0.023205334
0001d0 ec 7a b3 3c 2b 37 1d bc 01 92 e1 3d 90 42 cc 3b
       0.0219092 -0.009595673 0.11014176 0.006233521
0001e0 6a ad 20 3d bc 8d 21 3b d5 5e 54 3d cd f9 07 bd
       0.03922788 0.002465113 0.05184825 -0.033197213
0001f0 d0 ee d8 3d 54 2e 53 bc a4 a5 93 3d a3 10 ae 3d
       0.10592425 -0.012889463 0.07209328 0.08499267
000200 ab a7 79 bd 6b bc 9d 3d a5 33 ae 3d c9 e3 4d 3d
       -0.060950916 0.077019535 0.08505944 0.05026606
000210 01 cf 88 bd 6d 76 8f 3d 87 81 26 bc e5 5e 7f 3d
       -0.06680108 0.0700501 -0.010162718 0.062346358
000220 59 0a 70 bd 20 13 17 3c 4d 43 68 bd 6d 9f 2d 3d
       -0.05860362 0.009220868 -0.056704808 0.04238837
000230 3b f6 92 3d b6 12 85 3d e8 d2 d1 bd 97 9f e1 3c
       0.07175871 0.064977095 -0.10245305 0.027541919
000240 f0 05 d5 3b 7e 1d f9 bd 60 62 7b bb 38 bd b5 bd
       0.006500952 -0.12163828 -0.0038358197 -0.08873981
000250 01 81 22 bd 1e 4c b8 bd 9a 36 ab bd 29 dc 3d 3d
       -0.03967381 -0.08998893 -0.08360024 0.04635254
000260 42 ca 15 3d 01 07 4e bd 80 ac a8 bd 02 7a 75 3d
       0.03656984 -0.05029965 -0.08236027 0.05993081
000270 7b a1 4f 3d 4e a0 81 bd fd 56 18 3d 26 b6 72 3c
       0.05069111 -0.06329404 0.037192333 0.014813935
000280 b1 1f b1 bd f4 10 2d 3d 48 a9 88 bd 18 b3 e2 bd
       -0.08648623 0.042252496 -0.06672913 -0.11069316
000290 e0 e2 1b 3d 7e c0 9c 3c bb 39 ab bc 43 65 bf bc
       0.03805816 0.019134756 -0.020901551 -0.023363715
0002a0 08 30 e6 bd 69 3e a8 3d 16 62 b3 3c 1e 32 7d bd
       -0.1123963 0.08215029 0.021897357 -0.061815374
0002b0 64 4a d3 bd f3 73 b2 bc 34 6b 33 3c ac 35 f4 3c
       -0.10316923 -0.021783805 0.010950852 0.029810749
0002c0 c5 f7 25 bc 8c ba 73 bd 6a ad 77 bd 35 ea ba bd
       -0.010129874 -0.059504077 -0.060468115 -0.09126703
0002d0 c5 35 dd bd 2e da 99 bc 24 9a d4 bb 9a d9 7f bc
       -0.10801271 -0.018780794 -0.0064881016 -0.015615845
0002e0 b8 12 bf bd cf 2b de 3c f4 9d e8 bd 4f a4 20 3d
       -0.09329742 0.027120499 -0.11358252 0.039219197
0002f0 51 b1 a1 bd 1c 26 6d 3d 64 a3 b1 bd c2 7b 66 bd
       -0.078951485 0.057897672 -0.086737424 -0.05627037
000300 13 6a a5 bd f4 7a c9 bd dc 9f 86 bb da 3c 12 3d
       -0.08076873 -0.098379046 -0.004108412 0.035702564
000310 aa 45 7e bd 90 47 7e 3d d1 e5 cf 3d cb e1 de bd
       -0.062078156 0.062079966 0.10151256 -0.1088291
000320 f2 89 f1 bc bd 9d 74 bd 9b 38 2a 3d 78 13 de b8
       -0.029484723 -0.059720743 0.04155789 -0.00010589411
000330 84 2d b4 39 1c 72 40 3c b4 d3 b1 bd b5 33 4e bd
       0.00034366187 0.011745956 -0.08682957 -0.05034228
000340 79 20 55 bc 21 54 25 bd 94 16 91 3d 4b ea 8b bd
       -0.01300823 -0.040363435 0.070843846 -0.06831797
000350 ae 12 53 bd 01 2b 50 bd cd bb 57 3d 1f dd 4c 3d
       -0.051531486 -0.05082226 0.052669335 0.050015565
000360 b4 b8 92 bd 1d 30 b8 3c 2f b0 bc bc 62 fd a0 3d
       -0.071641356 0.02248388 -0.02303323 0.07860829
000370 0f e0 a9 bd 6b 33 2c bd c4 4b 7b bd 7e 30 8c bd
       -0.08294689 -0.042041223 -0.061351553 -0.06845187
000380 38 7e 23 bc bb 83 89 bc 75 25 83 bd 27 b9 96 3a
       -0.009978823 -0.016786447 -0.06403629 0.0011499271
000390 76 b0 a3 3d 41 5f 15 3d 4f 07 85 bd b5 f2 0f bd
       0.07992642 0.036467794 -0.06495535 -0.035143573
0003a0 62 e4 5b 3d 56 18 8c bd 32 66 9a bd 79 76 3e 3d
       0.0536846 -0.06840579 -0.075390235 0.046499703
0003b0 1b 92 00 3d 9f 00 9b bd a2 14 1c 3c ad bc cd 3d
       0.031389337 -0.07568478 0.009526404 0.10045753
0003c0 69 7c 47 3d 74 11 2a 3d 9a 32 14 3d 6c 35 83 bc
       0.04870263 0.04152055 0.03618107 -0.016016684
0003d0 b7 ee 94 bd a9 70 92 3b 6a ba b9 39 80 84 b2 3b
       -0.07272094 0.0044689965 0.0003542484 0.005447924
0003e0 57 69 7f 3d 6e 9f 92 3d e3 6e a3 bd 65 57 33 3d
       0.06235632 0.07159315 -0.07980134 0.043784518
0003f0 70 40 43 3c dc 3e b4 bd d9 2e 90 3d 0f 0b 7a 3b
       0.011917219 -0.08801052 0.070401855 0.0038153564

action_fc2.bias f4 [2]
000000 e4 27 e7 3c 60 fb 11 3d
       0.028217264 0.03564012

value_fc1.weight f4 [64, 256]
000000 a7 3b ee 3c c9 bc e1 bd 8b d9 d7 bd 47 1b 3f 3e
       0.029081179 -0.11022336 -0.1053954 0.18662749
000010 0b f5 74 bd 75 64 25 3e 7d 85 07 3b 57 33 94 3c
       -0.059804004 0.16151603 0.002067893 0.018090887
000020 76 5b e0 3d e8 c1 71 be bc 04 82 3d cc 39 03 3d
       0.10954945 -0.23609126 0.06348559 0.03203754
000030 9d f3 5b be 46 b5 b6 3d 0a 22 a2 bd ee 81 d2 3d
       -0.2147965 0.08921294 -0.07916649 0.10278688
000040 91 7f 02 3e 2c 52 34 bc f9 65 6c 3b a8 a7 08 bd
       0.12743975 -0.011005919 0.0036071523 -0.033363014
000050 d2 f1 53 bd e0 93 9f bc ce 23 f1 bd 55 53 32 bd
       -0.05174429 -0.019479692 -0.11774407 -0.043536503
000060 73 5f e7 bc a5 27 da 3d e0 be 39 be 03 8d 5f be
       -0.028243756 0.10652093 -0.1813922 -0.21831135
000070 36 39 22 be b5 39 f6 3d af e9 8b 3c d3 ab 9d bd
       -0.15842137 0.120227255 0.017079202 -0.076987885
000080 80 f7 f1 bd 90 65 76 bd e3 ff 22 3b b0 13 4a b9
       -0.11814785 -0.06015545 0.0024871759 -0.00019271555
000090 ec 2d 3e be d7 8b 73 bd bf b2 5a 3e 46 c5 26 3d
       -0.18572205 -0.059459534 0.21357249 0.04071548
0000a0 66 8c d7 bc 37 7b d1 bd 6a c2 b7 bd 42 de 0a be
       -0.026312064 -0.102285795 -0.089726284 -0.13561347
0000b0 e6 d8 73 3d 62 53 02 3d 5f d9 11 be 32 37 b0 bd
       0.059533022 0.0318178 -0.14243077 -0.08604278
0000c0 17 ab 5e 3e f7 3f c2 3d be 1f 0d bc 28 96 52 3e
       0.21744953 0.094848566 -0.008613525 0.20565093
0000d0 6f 8d 03 be a3 8c 34 3d 42 db b4 bd 75 5f b6 3d
       -0.12846921 0.044079434 -0.088308826 0.08904926
0000e0 2b eb 3d 3e 51 0d ca bc 23 b8 23 3d a8 27 b9 3d
       0.1854674 -0.024664553 0.03997053 0.09040767
0000f0 df c8 3c be 80 b9 c0 3d 3f 51 c2 3d 75 f0 23 bc
       -0.18436001 0.09410381 0.09488153 -0.01000606
000100 24 88 25 3e ab e3 ce 3d 02 1c 88 be a8 49 1e be
       0.16165215 0.10102018 -0.26583868 -0.15457785
000110 db fe 26 be fe c2 2b bc 3e 3f ff 3d 4c 51 cd bc
       -0.16308157 -0.0104835015 0.12463234 -0.02506318
000120 5a 6c 33 3e 61 a0 39 be 52 fb 58 bd e7 b8 e8 bc
       0.17521802 -0.18127586 -0.052974053 -0.02840848
000130 a0 33 85 3d ab 48 d6 3b ee 7f 0b bd ff 6a a4 3d
       0.06503987 0.0065394244 -0.03405755 0.080282204
000140 12 84 38 3e 17 cd 11 be 1e ca 22 3e c6 e3 6c be
       0.18019131 -0.14238392 0.15897414 -0.23133764
000150 91 2e 44 be f7 8d 00 3d f6 9b cf bd 0d 40 4e 3e
       -0.19158389 0.03138539 -0.10137169 0.20141621
000160 3b 2b c9 3d f6 89 59 bd 78 90 bc bd dc e7 22 be
       0.09822699 -0.053110085 -0.09207243 -0.1590876
000170 59 93 a0 3d 4e 15 2b 3e cc 6c a8 bb 77 3f 44 be
       0.07840604 0.16707346 -0.0051399227 -0.19164835
000180 51 32 4f be 21 05 00 3d 82 41 cc 3d cb 4e ce bd
       -0.20234038 0.03125489 0.09973432 -0.10073622
000190 66 29 82 3d 05 18 e2 3d 67 0f a1 bd d2 60 f4 3d
       0.063555524 0.110397376 -0.07864266 0.119325295
0001a0 bd 98 41 be a7 33 15 3e 81 56 7b be 0b 85 a5 bd
       -0.18905921 0.14570485 -0.24544717 -0.080820166
0001b0 05 2d c4 3d fb 48 87 bd 27 31 06 3e 88 08 67 3e
       0.09578899 -0.06605717 0.13104688 0.22561848
0001c0 ef 15 98 bc 00 4e 56 be 9e b3 de bc 71 51 fd bd
       -0.018565146 -0.20928192 -0.027185258 -0.12369049
0001d0 9c dc 23 3e 2e 10 65 bd c1 89 01 3e 1f ce d4 3c
       0.16002125 -0.055923633 0.12650205 0.025977192
0001e0 ca da 43 be e1 b2 ee bd cf 0f 3c 3e 82 59 47 be
       -0.1912643 -0.11655212 0.18365405 -0.19467738
0001f0 65 66 41 be b6 d3 3d 3e 25 38 10 3e 9c ed 0a be
       -0.18886717 0.18537793 0.14083917 -0.13567203
000200 6a bd c6 bd e4 a2 25 3d 70 62 06 3e 34 64 4c 3e
       -0.097040966 0.040438548 0.13123488 0.199601
000210 0a a0 9e bd 37 1b 21 bd 68 35 2f 3d 71 dc cc 3d
       -0.07745369 -0.039332595 0.04277554 0.10002983
000220 00 b9 26 3d ff 94 4b be b0 b0 03 be 3a 6d 65 3d
       0.040703773 -0.19881056 -0.1286037 0.05601237
000230 da 17 20 3e ad a3 1b be 24 2b 13 3e de 3f 57 be
       0.15634099 -0.15199156 0.14371926 -0.21020457
000240 11 70 e0 3d 34 14 06 3d c5 34 e9 3d 3a eb dc bc
       0.10958875 0.03273411 0.11387018 -0.026967634
000250 f3 e1 e5 3d 57 bc 60 3e 44 47 48 3e b8 23 6a be
       0.11224737 0.21946846 0.19558436 -0.22865188
000260 fc d0 42 3e 6e b7 1e be b6 06 d1 3d 0b 51 e0 3c
       0.19025034 -0.1549966 0.10206358 0.027382394
000270 23 4f 03 bd 0e af eb 3d f6 02 01 3e b1 96 2c 3d
       -0.032057893 0.115079984 0.12598786 0.042135898
000280 4c 49 74 be 3c 94 73 bd a8 8a 29 be ca d1 e3 bc
       -0.23856086 -0.05946754 -0.165568 -0.027809996
000290 ef e6 08 bd 5d a3 4e 3e 25 29 35 3e 4f be 4b 3e
       -0.03342336 0.20179506 0.17691477 0.19896816
0002a0 a2 78 ca 3d d0 a8 54 3d d5 ad 73 bd af 6d 1b 3e
       0.0988629 0.051918805 -0.05949195 0.1517856
0002b0 44 85 4b 3e 1b 5a 14 bc 4f 0d 65 bd 8b f8 02 3d
       0.19875056 -0.009054686 -0.055920895 0.03197531
0002c0 5e 73 27 be d2 0d 74 be 79 05 91 3d a1 07 42 3e
       -0.16352603 -0.23833397 0.07081122 0.18948223
0002d0 0c 67 03 be 07 b0 77 bd 13 26 34 3d 57 4c 25 bd
       -0.12832278 -0.060470607 0.043981623 -0.040356006
0002e0 7e 3a eb bc 4e 96 27 be a0 29 5b 3e 7b 92 07 be
       -0.028714415 -0.1636593 0.21402597 -0.13239472
0002f0 88 2d 96 3b 29 6c 69 be ee 75 6c 3d 4d ad da bd
       0.0045830645 -0.22795166 0.057729654 -0.10677586
000300 87 92 0e bd 71 96 98 bd 10 63 f2 3c 02 26 3d 3d
       -0.034807708 -0.074505694 0.029588252 0.046178825
000310 80 9f 18 be 1e c4 63 bd a9 4a 02 3b 2e 42 8e 3e
       -0.14904594 -0.055606954 0.0019880927 0.27784866
000320 a5 85 38 be 5f d3 f3 bd 2d 88 19 3e bf d1 06 be
       -0.18019731 -0.1190555 0.14993353 -0.1316595
000330 3d 28 fc 3d 73 15 41 be 9f 7d 9f bd ee f8 cb 3d
       0.12312362 -0.18855838 -0.07787632 0.09959589
000340 cb a4 1b 3e 09 8b e7 bc 52 ac 8f 3d 80 23 a1 3d
       0.15199582 -0.02826454 0.07015289 0.07868099
000350 ec d2 2c be fd dd 40 be f2 3e 61 bd b2 c2 0b 3e
       -0.16877335 -0.18834682 -0.05499167 0.13648489
000360 22 64 58 3d 9f c5 52 bd 00 ed 67 3e 67 cd 0e bd
       0.05282987 -0.051457997 0.22649002 -0.034863856
000370 01 69 8c 3d d0 a6 c9 3d 86 90 10 3d 3a ad 18 be
       0.068559654 0.0984627 0.03529408 -0.1490983
000380 d7 19 41 be 89 0b da 3d 8d 36 44 be a0 f0 77 3d
       -0.18857513 0.106467314 -0.19161434 0.060532212
000390 c7 81 fa bd 10 cc 93 3c 2c 25 b7 3d 61 e0 0e 3e
       -0.12231784 0.01804164 0.08942637 0.13952781
0003a0 37 9b 14 3d fe e4 65 3e 7a c4 0c 3e 10 67 72 3e
       0.036280837 0.22450635 0.13746825 0.23672128
0003b0 0c c2 1c 3d 72 29 64 bc c1 96 75 3e 67 34 c7 3d
       0.038270995 -0.013925897 0.2398329 0.09726792
0003c0 36 5e e4 bd c5 3c 47 bd 2e d4 0d 3e e6 63 24 be
       -0.11150782 -0.04864194 0.13850471 -0.16053733
0003d0 27 7d b0 3c 36 7c 32 3e fc fc fa bd 14 e1 c2 3d
       0.021544052 0.17430195 -0.12255284 0.095155865
0003e0 6d 5f f4 bd fd 74 b8 bd 2a 40 8c 3c e2 cb 71 3d
       -0.119322635 -0.09006689 0.01712044 0.05903233
0003f0 a9 26 9d 3c 92 15 32 3e c3 cf 48 3e 69 68 25 bc
       0.019183474 0.17391041 0.19610505 -0.010095694

value_fc1.bias f4 [64]
000000 7c b2 3d bd ca 9b 2c 3e 3a 0e 32 3d 11 00 d0 3d
       -0.046312794 0.16856304 0.0434706 0.10156263
000010 f6 38 06 3e be 55 50 bd 11 0c e3 3d c4 27 48 bc
       0.13107666 -0.05086302 0.11086286 -0.012216512
000020 e5 b9 8d bc f3 2c fe 3d 47 53 39 bd 0d 9f 52 3d
       -0.017300555 0.12410917 -0.045245435 0.051421214
000030 66 32 5e 3b ba 0d a2 bd b7 4d db 3d 3a 8c 9c 3d
       0.0033904552 -0.079127744 0.10708182 0.076439336
000040 c4 21 b8 3d c0 83 5d 3d 97 53 b3 3d 44 f1 a0 3d
       0.08990815 0.054080725 0.08756178 0.07858518
000050 f4 ba 97 3d 80 bd 35 3d 8f 44 04 3d d4 3e 8f 3d
       0.07408705 0.044370174 0.032291945 0.069944054
000060 10 5e f8 3c e7 fc 55 3d 45 45 24 3e 8f 38 f1 3d
       0.03031829 0.05224314 0.16042049 0.11778366
000070 4c 39 a2 3d 1d 00 a9 3d 35 bf f6 3d 8f 59 8f 3c
       0.07921085 0.08251975 0.120481886 0.01749876
000080 e5 80 24 3e e8 42 90 bd 5c ff cd 3d 70 1f 31 bc
       0.16064794 -0.07044011 0.100584716 -0.010810718
000090 b9 3c 4e 3d 90 59 7f bc 57 cf 5e bc f8 2e 37 3e
       0.05035088 -0.015585318 -0.013599238 0.17889011
0000a0 f7 b5 f7 bc d6 3c bf bc 9e e8 14 3d dd 21 ba 3c
       -0.030238135 -0.023344439 0.036354654 0.022721225
0000b0 ab f0 86 bd c5 93 14 3e ae 7d 89 3d 60 41 a6 3d
       -0.065888725 0.14509495 0.067134246 0.08117938
0000c0 5c d2 1c bd 23 e2 87 3c 74 6c 99 bc 82 32 11 3e
       -0.03828655 0.016587323 -0.018728472 0.14179423
0000d0 ff 37 f4 3d c8 45 2c bc c7 1a ec bc 47 9f 00 bc
       0.11924743 -0.010514684 -0.028821362 -0.007850475
0000e0 7b 9f b2 3d 9d 15 0b 3e c5 42 d5 3d f6 5d 7a 3d
       0.08721825 0.13582464 0.10413126 0.061124764
0000f0 67 fa b6 3b 09 9c cd 3d 25 42 78 bb 0b 51 41 3e
       0.0055840495 0.10039527 -0.0037881222 0.18878572

value_fc2.weight f4 [1, 64]
000000 f7 7d 8c be b9 84 39 3e 27 a5 49 bd c5 51 57 3e
       -0.27439854 0.18117036 -0.049229767 0.21027286
000010 2d 6c 42 3e ac 65 e7 bd 7c 18 16 3e a1 2f d1 bd
       0.18986578 -0.11298689 0.14657778 -0.102141626
000020 84 a6 c1 3d 7e 6e 25 3e 29 6f 6f bd 2f d2 a6 bd
       0.094555885 0.1615543 -0.05845562 -0.08145558
000030 55 39 e2 bd 19 88 50 3d 1e 9f 74 3e 3c 2a 32 3e
       -0.110460915 0.050911043 0.23888823 0.17398924
000040 51 2b 56 3e e0 3f 71 be 7c 33 1f 3e 23 2a 79 3e
       0.20914961 -0.23559523 0.15546983 0.2433248
000050 fc b8 67 be 58 61 78 bd e1 4f 4e be 7f fd f9 bd
       -0.2262916 -0.06063971 -0.20147659 -0.12206554
000060 9b 9b c5 bd 77 3f 1e 3e d3 18 67 3e 1b 6a 3c 3e
       -0.0964882 0.15453897 0.22568063 0.18399851
000070 16 fc 57 3e ba 94 5e be 1b 56 39 3e de b4 b5 bc
       0.21092257 -0.21736422 0.18099253 -0.02218097
000080 e0 64 5f 3e 27 27 bb 3d 41 08 43 3e 44 e8 c5 bd
       0.21815825 0.09138327 0.19046117 -0.09663442
000090 66 39 50 3e 50 54 20 3d 26 ac af be 0a 2c 1d 3e
       0.20334396 0.039142907 -0.34311026 0.15348831
0000a0 a8 26 8d bc 2b 73 9e be 05 d7 97 bd d2 f6 83 bc
       -0.017230347 -0.3094724 -0.074140586 -0.016108904
0000b0 36 14 27 3c 91 76 32 3e fd c6 83 be 9f 7e 92 be
       0.01019769 0.17428042 -0.25737754 -0.2861223
0000c0 3e 3a 69 be 04 cb 87 bd 80 93 bf bc b7 0b 2b 3e
       -0.22776124 -0.06630519 -0.023385763 0.16703688
0000d0 da 73 09 3e 15 1a e5 bc 9d ac 3a bd 21 f6 43 3d
       0.134231 -0.027966538 -0.045574773 0.04784215
0000e0 fc 78 68 3e 91 c0 55 3e d3 84 3b 3e d8 9e 91 be
       0.22702402 0.2087424 0.18312387 -0.284415
0000f0 d2 4e 8a bd 71 06 1b 3e b2 7b be 3b de c1 1b 3e
       -0.06753315 0.15139176 0.0058130855 0.15210673
