HW3/preTrained/LunarLander_0.001.pth (torch, 13471 bytes, 6 tensors)

fc1.weight f4 [64, 8]
0	0x3f4bb4cf	0.79572767
1	0xc01d9d66	-2.4627318
2	0x3fae6c05	1.3626715
3	0xbfc4785a	-1.5349228
4	0x3fee30a9	1.86086
5	0xbfa497f3	-1.2858871
6	0xbf6c3326	-0.92265546
7	0x3e49c01f	0.19702195
8	0xbe8a8e9e	-0.27061933
9	0x3dba58af	0.09098946
10	0xc0c0795c	-6.0148144
11	0xbe88f268	-0.2674744
12	0x3f80aed4	1.0053353
13	0x3eb2030c	0.3476795
14	0x3e949d8a	0.29026443
15	0x3f51f8be	0.82020175
16	0x3f46e204	0.7768862
17	0xbf8b14a5	-1.0865675
18	0x4020f2ff	2.5148313
19	0x3e92a630	0.28642416
20	0x3f84515e	1.0337331
21	0xbe3d31de	-0.18476054
22	0xbe07eef8	-0.13274753
23	0xbe2a3a1b	-0.16623728
24	0xbf83d651	-1.0299779
25	0xbf4cb986	-0.79970586
26	0x3f6d4c84	0.9269488
27	0x3f5fc2ad	0.87406427
28	0xbf6371e8	-0.8884568
29	0x3f82e2fb	1.0225519
30	0xbedd674e	-0.43242878
31	0xbea2efb9	-0.3182352
32	0xbe1fbb4d	-0.15598793
33	0xc04fd8ed	-3.247615
34	0x3ee2ee56	0.4432246
35	0xbfdc36bd	-1.7204205
36	0xbf05e199	-0.5229736
37	0x3e8507f6	0.25982636
38	0xbe7b515f	-0.2454276
39	0x3d53c118	0.05169782
40	0xbfad1d81	-1.3524629
41	0xbe105cad	-0.14097853
42	0xbffb050d	-1.9610916
43	0x3fe3b25d	1.7788807
44	0x4005ea9a	2.092444
45	0x3f8314e1	1.0240747
46	0xbe6e3f92	-0.23266438
47	0xbc76187e	-0.015020488
48	0xbf83892a	-1.0276234
49	0x3d88865f	0.06666254
50	0xc02ee982	-2.7330022
51	0x3f7d95b5	0.9905656
52	0x3fd002fd	1.6250912
53	0x3f8f238d	1.1182724
54	0xbec878f4	-0.3915478
55	0x3ee113af	0.4396033
56	0x3e41a81a	0.18911782
57	0x3f31b6c5	0.6941951
58	0x400d8b65	2.211633
59	0x40e27c10	7.0776443
60	0xbefa8816	-0.4893195
61	0xbe7546e1	-0.2395282
62	0x3f21a98a	0.6314932
63	0x3eb146fa	0.34624463
64	0xbeac2a79	-0.33626154
65	0xbd4c6405	-0.049900074
66	0xbff929f5	-1.9465929
67	0x40e91cd5	7.2847695
68	0x3f567372	0.83769906
69	0x3eea0383	0.45705804
70	0xbcbd569a	-0.023112584
71	0x3f022cee	0.5084981
72	0x3e603cb8	0.21898162
73	0xbf973a6b	-1.1814703
74	0x40139d29	2.3064673
75	0xbe9af6dc	-0.30266464
76	0xbfba0669	-1.4533206
77	0xbf1331d8	-0.5749793
78	0xbd20dd16	-0.039273344
79	0xbe62191b	-0.2207989
80	0xbc93d2c0	-0.01804483
81	0xbeaf86d6	-0.3428256
82	0x3e15fe7a	0.14647856
83	0x3d1eb028	0.038742214
84	0x3d2341d0	0.039857686
85	0x3d1e53f8	0.038654298
86	0xbe981aef	-0.2970805
87	0xbe9a39dd	-0.3012227
88	0xbec90d56	-0.39267987
89	0xbf155293	-0.58329123
90	0xbfe1307e	-1.7592924
91	0x3f7d1a75	0.98868495
92	0x3ef989f8	0.48738074
93	0x3f899832	1.0749571
94	0xbe9d76be	-0.30754656
95	0xbe979fa4	-0.29613984
96	0xbe88b7ee	-0.26702827
97	0x3f09e4c3	0.5386469
98	0xc0bda7d1	-5.9267354
99	0x3fc9e67d	1.5773464
100	0x3fc3e8b6	1.5305393
101	0x3e3e42c9	0.18580164
102	0xbe61d2bc	-0.22053045
103	0x3df9eede	0.122037634
104	0x3e895a62	0.2682677
105	0xbf4cda02	-0.80020154
106	0x3fee13ef	1.8599833
107	0x3d70120d	0.058610965
108	0xbf745904	-0.9544833
109	0x3e4e376a	0.20138326
110	0x3dccf425	0.100075044
111	0x3d0d0f86	0.034438632
112	0xbe47c2c5	-0.19507892
113	0xbe50b5b9	-0.20381822
114	0x3e1448f3	0.14480953
115	0x3eb4db06	0.35323352
116	0x3e4bc68f	0.19899963
117	0xbd9a430c	-0.075323194
118	0xbe04d3bb	-0.12971394
119	0xbebb5763	-0.36590108
120	0x3f24135e	0.6409205
121	0x3ff488e6	1.9104278
122	0x4001010e	2.0156894
123	0x3f1ca513	0.61189383
124	0xbfba61c3	-1.4561085
125	0xbe90c2ad	-0.28273526
126	0x3eb12835	0.34600988
127	0xbdfad6d3	-0.12248006
128	0xbf6e904c	-0.9318893
129	0xbf53d489	-0.8274618
130	0xc02b995e	-2.6812358
131	0x3ef15a53	0.47139224
132	0xbfeaed13	-1.8353599
133	0xbf73fd8a	-0.95308745
134	0xbd5f09f2	-0.054452844
135	0xbeca6c0b	-0.39535555
136	0x3d9134c5	0.07090143
137	0xbe073f8a	-0.13207832
138	0x3d9f63dc	0.077827185
139	0x3e2dc2a1	0.16968776
140	0x3d1a9dcb	0.03774814
141	0xbd949802	-0.07255556
142	0x3e1f8050	0.15576291
143	0xbea90acf	-0.3301606
144	0xbf3342d1	-0.7002383
145	0xc006873f	-2.1020048
146	0x40a05c70	5.011284
147	0x3e84f488	0.25967813
148	0x3e8cffee	0.2753901
149	0xbf20bfee	-0.6279286
150	0x3dd0323a	0.1016583
151	0x3f0da1e1	0.5532513
152	0x3e67c3a2	0.22633222
153	0xbf846fed	-1.0346657
154	0x400b9862	2.1811757
155	0xbf526e05	-0.82199126
156	0x40152fd3	2.331044
157	0x3f8c3f49	1.0956813
158	0xbf409c4c	-0.7523849
159	0xbf17e72f	-0.59337133
160	0xbeb78d11	-0.35849813
161	0xbe83cf7c	-0.25744236
162	0xbd06f5cd	-0.032949258
163	0x3e28343d	0.16426177
164	0xbdcd3ca6	-0.100213334
165	0xbe88343d	-0.26602355
166	0xbe11680b	-0.14199845
167	0xbeb0b619	-0.3451393
168	0x3e314126	0.17310008
169	0x3fa2b228	1.2710619
170	0x3ffeb41b	1.9898714
171	0x3e2a984e	0.16659662
172	0xbff7f867	-1.9372681
173	0xbf88abea	-1.0677464
174	0x3f0252b0	0.5090742
175	0xbf445219	-0.7668777
176	0x3e1aa58d	0.15102215
177	0x3d6b4de6	0.057447337
178	0x405be855	3.4360554
179	0x40486bf2	3.1315885
180	0xbf89cb4d	-1.0765167
181	0x3ea8be38	0.32957625
182	0x3df92636	0.12165491
183	0x3dac8857	0.08424442
184	0xbfe462bc	-1.7842631
185	0x3f06b8c2	0.5262567
186	0xc08e78b4	-4.4522343
187	0x3f3efad4	0.74601483
188	0xbf40aa8d	-0.7526024
189	0xbe5e5f52	-0.2171605
190	0x3ede65bc	0.43436992
191	0xbd225eb2	-0.03964109
192	0xbe78d3ad	-0.24299498
193	0xbe9900d8	-0.29883456
194	0x40689f93	3.6347396
195	0xbfdf0217	-1.7422513
196	0x403e02c5	2.968919
197	0x3f1e15bb	0.6175191
198	0xbfaad4cf	-1.3346194
199	0x3d129cc1	0.035794023
200	0xbebc89f8	-0.36824012
201	0xbfb30f90	-1.3989124
202	0x4058e00a	3.3886743
203	0x4022d589	2.5442832
204	0xbeb9cf71	-0.36291078
205	0x3ebe6634	0.3718735
206	0x3ee4137d	0.44546118
207	0xbed82dc4	-0.42222416
208	0xbd1a4c19	-0.03767023
209	0x3f5b989d	0.85779744
210	0xc07dada1	-3.9637225
211	0x40152b85	2.3307812
212	0x3f59740b	0.8494269
213	0x3edbccda	0.42929727
214	0xbe9fad97	-0.31187126
215	0x3c0a6726	0.008447444
216	0x3d9c9de0	0.076473
217	0xc02f4b07	-2.7389543
218	0x3f7ccf35	0.9875367
219	0xbfb864fc	-1.4405818
220	0xbe31e429	-0.17372192
221	0xbeb7f308	-0.35927606
222	0xbf050671	-0.51962954
223	0x3e5b36ad	0.21407576
224	0x3f0d3000	0.5515137
225	0xc01f1ba0	-2.486061
226	0x402660f3	2.5996673
227	0xbf9ca0e2	-1.2236598
228	0x3d8d83c3	0.06909897
229	0xbfa3c994	-1.2795892
230	0xbf23f541	-0.640461
231	0x3ea58ce0	0.32334042
232	0xbe876577	-0.264446
233	0xbe8eb827	-0.27874872
234	0x4071f74a	3.7807183
235	0xbdc6caa9	-0.09706623
236	0x401591fd	2.3370354
237	0xbeb0a9ac	-0.3450445
238	0xbfcb3e38	-1.5878363
239	0x3f448321	0.76762587
240	0xbeec973a	-0.46209127
241	0x3eaa556b	0.33268294
242	0xc081b45c	-4.0532665
243	0xbda493ac	-0.08035979
244	0x3fc2f950	1.5232334
245	0x3db8d43c	0.090248555
246	0xbe8b55cf	-0.27213904
247	0x3d953a6a	0.07286532
248	0x3ee80a0c	0.45320165
249	0xc032e4b3	-2.7952087
250	0x3f353fb4	0.7080033
251	0xbf81a492	-1.0128348
252	0x3e82677c	0.25469577
253	0x3e0816a3	0.13289885
254	0xbf3b9701	-0.7327729
255	0x3e70dbc6	0.23521337

fc1.bias f4 [64]
0	0x3e9d3c41	0.30710033
1	0x3e1e9e4f	0.15490077
2	0x3d1287ff	0.035774227
3	0xbe4e5b78	-0.2015208
4	0x3f1ffdc7	0.6249661
5	0xbbf15958	-0.007365387
6	0xbf12b269	-0.5730348
7	0x3eb3d439	0.3512285
8	0x3ed5dc1a	0.41769487
9	0xbed619b9	-0.418165
10	0xbea9c2df	-0.33156487
11	0xbf3af2dd	-0.7302683
12	0x3e7eef3f	0.24895953
13	0xbe92198c	-0.28535116
14	0xbe9e69f0	-0.309402
15	0x3eb220c2	0.34790617
16	0xbf4e560a	-0.80600035
17	0xbeb174ef	-0.34659526
18	0x3d4cb877	0.049980607
19	0x3edc74bc	0.4305781
20	0xbee7cd3a	-0.45273763
21	0x3e064a2f	0.13114236
22	0x3e2cd901	0.16879655
23	0xbf0c12ee	-0.54716384
24	0xbe2d1cfd	-0.1690559
25	0x3e89623d	0.26832762
26	0x3f414c14	0.7550671
27	0x3c98048f	0.018556861
28	0x3e236e45	0.15960033
29	0xbe3d719f	-0.18500374
30	0x3e85b7f2	0.26116902
31	0x3e572234	0.21009141
32	0xbe46d3db	-0.19416754
33	0x3e90e6b9	0.28301027
34	0xbf24802c	-0.64258075
35	0xbedf3df9	-0.4360197
36	0x3d8adee5	0.06780795
37	0x3e989bfc	0.29806507
38	0x3e788217	0.24268375
39	0xbda4dc13	-0.08049788
40	0x3f037ee5	0.513655
41	0xbea98106	-0.3310625
42	0x3ea7371b	0.3265923
43	0xbf19df40	-0.6010628
44	0x3e7eb483	0.24873547
45	0xbf1559ce	-0.58340156
46	0xbe64b075	-0.22332938
47	0x3eb7b253	0.35878238
48	0x3cacbec4	0.021087058
49	0xbf0d093a	-0.55092204
50	0xbf2402d3	-0.6406681
51	0xbe905d31	-0.281961
52	0xbf03760a	-0.5135199
53	0xbecc93f7	-0.39956638
54	0xbf7045e0	-0.9385662
55	0x3e6d0c45	0.23149212
56	0x3ee1257f	0.4397392
57	0x3efa6385	0.48904052
58	0x3d6535cb	0.055959504
59	0x3eed5fa8	0.46362042
60	0xbf1dd468	-0.6165223
61	0xbe9f9e19	-0.31175306
62	0xbef142bd	-0.4712123
63	0xbec791c9	-0.38978413

fc2.weight f4 [32, 64]
0	0x400a6ec1	2.16301
1	0xbf68b443	-0.9090006
2	0x3f922fd4	1.1420846
3	0xbdbf6599	-0.0934555
4	0x3fa3cc15	1.2796656
5	0xbe0589be	-0.13040826
6	0xbebe72e4	-0.3719703
7	0x3da2806f	0.07934653
8	0x3e6d1d5a	0.23155728
9	0x3f07e727	0.53087085
10	0xb7914000	-1.731515e-05
11	0xbed7739f	-0.420804
12	0xc0192071	-2.392605
13	0xbf19ee13	-0.601289
14	0xbc82f1fb	-0.015984526
15	0xbff408b5	-1.9065157
16	0x3f5463ad	0.82964593
17	0xbc9a7921	-0.018856587
18	0x3fdbc1f8	1.716857
19	0x3ed16dde	0.40904135
20	0xbcc666cb	-0.024218937
21	0xbfdf8578	-1.7462606
22	0x3f3e7165	0.74391776
23	0xbf2d3533	-0.676593
24	0x3f83602a	1.0263722
25	0x4010916c	2.2588758
26	0xbfc6c552	-1.5528967
27	0x3f16c84e	0.5889939
28	0x3fe54549	1.7911769
29	0x3fbdb4d2	1.4820807
30	0xbec695c7	-0.38786146
31	0x3f50b3d5	0.815244
32	0xbf8bc459	-1.0919296
33	0x3f1d661d	0.6148394
34	0xbe96a8c2	-0.29425627
35	0x3ea318f4	0.31854975
36	0xbf47d874	-0.78064656
37	0xbed5a616	-0.41728276
38	0xc00ce453	-2.2014358
39	0x3e112aa5	0.14176424
40	0xbf9b5cfb	-1.213775
41	0x3f9bcce1	1.2171899
42	0xbf62970a	-0.8851172
43	0x3e0eae14	0.13933593
44	0x3f07d5b8	0.53060484
45	0xbe19f072	-0.15033129
46	0x3ffffc08	1.9998789
47	0xbe918fac	-0.28429925
48	0xbd387618	-0.045034498
49	0xbfe28452	-1.7696631
50	0x3d26fd18	0.040768713
51	0xbe714d77	-0.23564707
52	0xbdac582e	-0.084152564
53	0xbe02058b	-0.12697427
54	0xbe9e3e10	-0.30906725
55	0xbd38da91	-0.045130316
56	0x3e53b54b	0.20674627
57	0x3f3ab564	0.7293303
58	0x3f9b1121	1.2114602
59	0x3e9921b9	0.2990854
60	0x3f077a0e	0.52920616
61	0x3e846389	0.2585719
62	0x3d677135	0.056504447
63	0xbcf8673e	-0.030322667
64	0x3fc3f9be	1.531059
65	0xbfa53630	-1.2907162
66	0x3f741abb	0.9535329
67	0xbf281560	-0.65657616
68	0x3ea79d70	0.32737303
69	0xbef52e3c	-0.47886837
70	0xbf5e3365	-0.8679717
71	0x3ebf07b4	0.37310565
72	0xbeaea76b	-0.34112105
73	0x3f7f0d80	0.99629974
74	0x3cc50f40	0.024055123
75	0xbf689197	-0.9084715
76	0xbea93b99	-0.33053282
77	0xbb307460	-0.0026924834
78	0x3d510bc1	0.0510366
79	0xbfb6673e	-1.4250257
80	0xbf47fc2a	-0.78119147
81	0x3c610cf2	0.013735997
82	0x3ec36898	0.38165736
83	0x3ee7510e	0.45179027
84	0x3e3f8f45	0.18706997
85	0xbfd917fd	-1.6960446
86	0xbf5e3ec0	-0.868145
87	0xbf59cec9	-0.85081154
88	0x3f893eb6	1.0722263
89	0x3e824121	0.25440314
90	0xbed3ee81	-0.41392902
91	0x3e7b46e0	0.24538755
92	0x3f9d5a03	1.2293094
93	0x3f749301	0.9553681
94	0xbd86e2ab	-0.06586202
95	0x3ec482e2	0.38381106
96	0xbfc71903	-1.5554508
97	0xbe6f456a	-0.23366323
98	0x3d3c9573	0.046040963
99	0xbd7ef1a4	-0.062242165
100	0xbf2c8e0f	-0.67404264
101	0xbf75b9a9	-0.9598642
102	0xbe9ea045	-0.3098165
103	0xbf693aed	-0.9110554
104	0xbf5a3fbb	-0.85253495
105	0xbf27948b	-0.65461034
106	0xbf5d4a9d	-0.86441976
107	0x3e8fb4c4	0.280676
108	0xbf89b0a4	-1.0757031
109	0x3e13d23b	0.14435665
110	0x3f8baaf6	1.0911548
111	0x3e34e554	0.17665607
112	0xbfbfd9d1	-1.4988347
113	0xbf9d6182	-1.2295382
114	0x3cef1d18	0.029188678
115	0x3f20edb2	0.62862694
116	0xbec2cbd1	-0.38046125
117	0x3eb8f13d	0.3612155
118	0x3ea2ddf7	0.3180997
119	0xbf5c73c6	-0.86114156
120	0x3c4f4539	0.012650781
121	0x3f4101ca	0.75393355
122	0x3e295ab9	0.16538514
123	0x3f6c2820	0.92248726
124	0xbf22649b	-0.6343476
125	0xbf703356	-0.9382833
126	0xbdaa110b	-0.08304032
127	0x3de63c47	0.11241966
128	0xbf401e01	-0.7504578
129	0xbff31cc9	-1.899316
130	0x3f5bdf96	0.8588804
131	0xbe470e1f	-0.1943898
132	0xbe779e62	-0.24181512
133	0xbf0bff40	-0.54686356
134	0xbf8cd081	-1.100113
135	0x3fd55df4	1.6669297
136	0x3f1b50a6	0.60669935
137	0x3f9748bd	1.1819073
138	0x3dd46898	0.10371512
139	0xbf22ef0c	-0.63646007
140	0xbfb91cb7	-1.4461888
141	0x3f22fc62	0.63666356
142	0x3da14ea2	0.07876326
143	0x3f53a56a	0.82674277
144	0xbf47c090	-0.780282
145	0x3df6cdfb	0.120510064
146	0x3f7e6128	0.99367
147	0xbffcc23a	-1.9746773
148	0xbe1810a7	-0.14850102
149	0x3f216aa3	0.6305334
150	0x401ce464	2.4514399
151	0xbf6f8d95	-0.9357541
152	0xc0458d82	-3.086762
153	0x3f8dd351	1.1080114
154	0xbf83e06a	-1.0302861
155	0xbe8dbd72	-0.27683598
156	0x3f1e58dd	0.61854345
157	0xbfc0e8cd	-1.5071045
158	0xbf955bfd	-1.1668698
159	0xbfa302b2	-1.2735198
160	0x3f73d9e4	0.9525435
161	0x3ec7ab14	0.3899771
162	0x3f04f627	0.519381
163	0x3d438876	0.04773756
164	0xbfae5345	-1.3619162
165	0xbf4a071a	-0.78917086
166	0xbfbedf1f	-1.4911841
167	0xc00eb815	-2.2299855
168	0x3f0b6d45	0.5446361
169	0xbf505ece	-0.8139466
170	0x3ed734a1	0.4203234
171	0xbe2bb69b	-0.16768877
172	0x400f6423	2.2404869
173	0xbc0aabe9	-0.008463838
174	0xbef541e9	-0.47901848
175	0x3f082680	0.53183746
176	0xbfdcdd87	-1.7255105
177	0x4027161c	2.6107244
178	0x3e8de9af	0.2771735
179	0xc03078a6	-2.7573638
180	0xbfcece82	-1.6156771
181	0xbe640c3d	-0.22270294
182	0xbf541893	-0.8285
183	0xbf37c858	-0.71790075
184	0x3f2e1e3d	0.6801489
185	0x3ed5cbcf	0.41757056
186	0x3d4189cf	0.047250565
187	0x3f2806f5	0.65635616
188	0xbf994d7b	-1.197677
189	0x4012ca7c	2.2936087
190	0xbdf574b9	-0.11985154
191	0x3d046b6d	0.03232901
192	0xbdd3131b	-0.103063785
193	0x3d4c4707	0.049872424
194	0x3c377650	0.0111976415
195	0x3cbb18c8	0.022838965
196	0xbdc0ebcd	-0.094199754
197	0xbca7846f	-0.020448891
198	0xbc9b481d	-0.018955285
199	0xbdfde42a	-0.123970345
200	0x3b2d2128	0.0026417468
201	0xbe045546	-0.12923154
202	0xbb556fc0	-0.003256783
203	0xbd5ac50b	-0.05341057
204	0x3c8dad31	0.017294498
205	0xbd327841	-0.043571714
206	0xbd8b13dc	-0.06790897
207	0xbdd79a1a	-0.105274394
208	0xbde17b9a	-0.11009903
209	0xbe1210a7	-0.14264165
210	0xbda44753	-0.080214165
211	0x3cdb2ae3	0.026753848
212	0xbccb3623	-0.024806088
213	0xbdaa876c	-0.08326611
214	0xbd807074	-0.06271449
215	0x3cb56846	0.022144448
216	0xbd4424db	-0.04788671
217	0xbccc5ec4	-0.024947532
218	0xbdeee4f2	-0.116647616
219	0xbd0b5404	-0.03401567
220	0x3c86b77b	0.016444912
221	0x3ce2c75d	0.027682954
222	0xbe0b4d17	-0.13603626
223	0xbc75dfe0	-0.015006989
224	0xbdcc2edb	-0.099698745
225	0x3bbcb006	0.0057582883
226	0xbe2a5951	-0.16635634
227	0xbdc35729	-0.09538109
228	0xbd75069f	-0.059820767
229	0xbda78842	-0.08180286
230	0xbdb5fa04	-0.08885577
231	0xbdbd9ee1	-0.09258819
232	0x3cb4a41e	0.022050913
233	0xbd5d139d	-0.053973783
234	0xbd9065a3	-0.07050636
235	0xbe06583f	-0.131196
236	0xbd77ad16	-0.060467802
237	0xbd93d258	-0.07217854
238	0x3c85deef	0.016341655
239	0x3cc08501	0.023500921
240	0xbd4e014d	-0.05029421
241	0xbcc3f8c1	-0.023922326
242	0x3de47200	0.11154556
243	0xbc814f16	-0.015784781
244	0xbe03e401	-0.12879945
245	0x3d037120	0.032090306
246	0x3dbd478c	0.09242162
247	0xbdd3cde1	-0.10342003
248	0xbdb33c9c	-0.08751795
249	0xbe3faf2b	-0.18719165
250	0xbd37bd4c	-0.044858262
251	0x3cda26a0	0.026629746
252	0x3dde125e	0.10843347
253	0xbdda3260	-0.106541395
254	0xbe2f964c	-0.17147177
255	0xbd8b603c	-0.068054646

fc2.bias f4 [32]
0	0x3e90f08f	0.28308532
1	0x3efc65fd	0.4929656
2	0xbf35413d	-0.7080267
3	0xbd9bd703	-0.076093696
4	0xbdb0e1a0	-0.086367846
5	0x3f28d10f	0.65944
6	0x3ec16e81	0.3777962
7	0x3f16cfa7	0.589106
8	0xbd95255a	-0.07282515
9	0xbe114a95	-0.14188607
10	0xbde8a8fd	-0.11360357
11	0xbe47dcd5	-0.19517834
12	0x3e899334	0.2687012
13	0x3e4fccb4	0.20292932
14	0x3eac59ed	0.33662358
15	0xbdeef763	-0.11668279
16	0x3f3a3351	0.7273455
17	0xbe5a9a3d	-0.213479
18	0xbdbb5f18	-0.09148997
19	0xbe64f71a	-0.22359887
20	0x3ee7777e	0.45208353
21	0xbd90f7b4	-0.070784956
22	0xbe23c157	-0.15991722
23	0x3ed78c11	0.4209905
24	0xbd01ea6e	-0.03171771
25	0x3f1a53ea	0.6028429
26	0xbe6497f2	-0.22323588
27	0x3e0c9570	0.13728881
28	0x3f7cefac	0.9880321
29	0x3f463478	0.7742381
30	0x3efd1489	0.4942973
31	0xbd8234fe	-0.06357764

fc3.weight f4 [4, 32]
0	0xbf43dbd1	-0.7650729
1	0x3fd49bab	1.6610006
2	0x3f014f01	0.50511175
3	0xbd4f0135	-0.05053826
4	0x3d97df3d	0.07415626
5	0xbf279d7a	-0.65474665
6	0xbf0bec09	-0.54657036
7	0xbf967990	-1.1755848
8	0x3f88f98a	1.0701153
9	0xbe07ca2c	-0.13260716
10	0x3f1a8241	0.60355
11	0x3e06e4bc	0.13173193
12	0x3f37abee	0.7174672
13	0xbe83020d	-0.25587502
14	0x3ea2d012	0.3179937
15	0x3d58d517	0.052937593
16	0xc022cfea	-2.54394
17	0x3dd61498	0.10453147
18	0x3da8f470	0.08249748
19	0x3e5df03e	0.21673676
20	0xbeae608a	-0.34058028
21	0x3e53a70a	0.20669189
22	0x3e26537d	0.16242786
23	0x3f758d92	0.95919144
24	0xbceee2a4	-0.029160805
25	0xbe81e472	-0.25369602
26	0x3e0952b1	0.1341045
27	0x3f73acd9	0.9518562
28	0xbf6cf420	-0.92560005
29	0xbf26b73b	-0.6512334
30	0xbfe487fc	-1.7853999
31	0x3f638918	0.88881063
32	0x3e6545cb	0.22389905
33	0xbf3b2a50	-0.7311144
34	0x3fb3c2d3	1.4043831
35	0xbdb61c6c	-0.0889214
36	0x3defce26	0.117092416
37	0xbf1f85c2	-0.62313473
38	0xbf2ae22a	-0.6675135
39	0xbf5ac921	-0.8546315
40	0xbf9f6933	-1.2453979
41	0xbe3387c8	-0.17532265
42	0xbd364c2a	-0.04450623
43	0x3d8aeac9	0.06783063
44	0x3fa93dd2	1.3221991
45	0xc0353543	-2.8313758
46	0x3ea47566	0.32120818
47	0xbdf35555	-0.1188151
48	0xbbd4adeb	-0.006490459
49	0xbe652092	-0.22375706
50	0xbb2537e9	-0.0025210327
51	0xbed898a3	-0.42303953
52	0xbf931d9c	-1.1493411
53	0xbdb5a9eb	-0.088703
54	0xbd429b71	-0.04751152
55	0x3fcd3a32	1.6033385
56	0x3dd82185	0.10553268
57	0xc033ee37	-2.8114145
58	0x3e542e5e	0.20720813
59	0xbfd85044	-1.6899495
60	0x3fbdb4c6	1.4820793
61	0x3ed39ad2	0.41329056
62	0xbfc43031	-1.5327207
63	0xc01cb190	-2.4483376
64	0x3fd83b36	1.689307
65	0x403ea494	2.978795
66	0xbfa1615c	-1.2607837
67	0xbe03ce4e	-0.12871668
68	0xbc28da2e	-0.010305924
69	0x3ff9722e	1.948797
70	0x3fe11cb6	1.7586887
71	0x3ffef369	1.9918033
72	0x4008485d	2.1294167
73	0xbd14a2d4	-0.036288098
74	0xbf8df47a	-1.1090233
75	0x3daaa699	0.08332557
76	0xbfdd12fb	-1.7271417
77	0x3fe04f9b	1.7524294
78	0xbeb48367	-0.35256502
79	0x3dcb9721	0.09940935
80	0x3faa3807	1.3298348
81	0x401ffa19	2.4996397
82	0x3d9ae3a8	0.07562953
83	0x3f55ff53	0.8359272
84	0x402569da	2.5845857
85	0x3c9ba1e7	0.0189981
86	0xbdaf9e18	-0.08575076
87	0xc01902d2	-2.3907971
88	0x3e0214ff	0.12703322
89	0x3f8e6b9e	1.1126592
90	0xbd133e2c	-0.035947964
91	0xbeac2498	-0.3362167
92	0xbf97a24b	-1.1846403
93	0x3f3862bd	0.7202566
94	0x4006f527	2.108713
95	0x3e2462ac	0.16053265
96	0xbfb75ec3	-1.4325794
97	0xbf9455fe	-1.1588743
98	0xbf5f8c02	-0.8732301
99	0xbe27bc02	-0.16380313
100	0xbd3da8da	-0.046303608
101	0x3d106c36	0.035259448
102	0x3edc9826	0.4308483
103	0xbf5393e6	-0.8264755
104	0xbf136463	-0.5757505
105	0xbe280a11	-0.1641009
106	0x3fc57a8c	1.5428023
107	0x3dcb9a89	0.099415846
108	0x3dc35870	0.095383525
109	0xbe003e1b	-0.12523691
110	0xc037f5b9	-2.8743727
111	0xbd7b7914	-0.061394766
112	0xbf8d6565	-1.1046568
113	0xbf81e509	-1.0148021
114	0xbd8c4fc3	-0.06851151
115	0xbf4532da	-0.7703072
116	0xbf021d22	-0.50825703
117	0x3d3e6e83	0.04649211
118	0xbdf9c1b6	-0.121951506
119	0x3dc4c235	0.096073546
120	0x3d545341	0.05183721
121	0x3f43314f	0.76247114
122	0xbd919937	-0.071093015
123	0x3faaa790	1.3332386
124	0xc07d917f	-3.9620054
125	0xc02c3d23	-2.6912315
126	0xbfba259c	-1.4542727
127	0x3fbe5e64	1.4872556

fc3.bias f4 [4]
0	0x3e87088e	0.26373714
1	0x3e6c41cc	0.23071975
2	0xbddb547d	-0.10709474
3	0x3ef21f38	0.47289443
